testCNNmodel.pth (torch_old, 296168 bytes, 44 tensors)

weight f4 [24, 3, 3, 3]
0	0x3e2cdfab	0.16882198
1	0xbdde55ff	-0.10856246
2	0xbcddf4b0	-0.027094215
3	0xbde40762	-0.11134221
4	0xbd33f7a3	-0.043937337
5	0x3ce43f83	0.027862316
6	0x3dd73542	0.10508205
7	0xbc813d99	-0.015776442
8	0x3dcbe014	0.09954849
9	0xbd3122a6	-0.043245934
10	0x3dd63fd0	0.1046139
11	0x3da50545	0.08057646
12	0xbd625e55	-0.055265743
13	0x3bd900f9	0.0066224304
14	0xbdc7c127	-0.09753638
15	0x3c38f4c8	0.011288829
16	0x3e0a2d73	0.134939
17	0xbc010346	-0.007874316
18	0x3d21f922	0.039544232
19	0xbe08970a	-0.13338867
20	0xbc61b6bc	-0.013776477
21	0xbdfc2f9a	-0.12313767
22	0xbdf19b8c	-0.11797246
23	0xba1ce968	-0.0005985708
24	0xbe152173	-0.14563541
25	0x3d5cfdea	0.05395309
26	0xbdf410fb	-0.11917301
27	0x3da9fc66	0.08300094
28	0x3e104462	0.14088586
29	0xbda6295d	-0.08113358
30	0xbc1edcc6	-0.009696191
31	0x3d348199	0.044068906
32	0xbe2b22e4	-0.16712528
33	0x3e3a2911	0.18179728
34	0xbe02ac8d	-0.12761135
35	0x3dd0cd9f	0.10195469
36	0xbdc8add0	-0.09798777
37	0xbd181cbf	-0.03713679
38	0x3c4df267	0.01257
39	0xbe1166af	-0.14199327
40	0xbe0d8a61	-0.13822319
41	0x3b02e668	0.0019973759
42	0x3e024b3e	0.12724015
43	0xbd088b10	-0.033335745
44	0x3d088689	0.033331428
45	0x3d7d289d	0.06180631
46	0xbd8ad076	-0.06778042
47	0x3e07043f	0.13185214
48	0xbd21cd5b	-0.039502483
49	0xbd111d4a	-0.035428323
50	0xbe29caca	-0.16581264
51	0xbd895897	-0.0670635
52	0xbc698c85	-0.014254694
53	0x3cd59e9f	0.026076613
54	0xbe71b8e8	-0.23605692
55	0x3e21e65d	0.15810533
56	0x3d72fd7c	0.059323773
57	0xbd2fa829	-0.04288498
58	0x3dc2cdb4	0.09511891
59	0x3e100cdb	0.14067404
60	0xbbde7da2	-0.006789879
61	0x3cf13797	0.029445453
62	0xbd8695b3	-0.065715216
63	0xbe6aeb74	-0.2294138
64	0xbdb557f1	-0.08854664
65	0x3e0251b8	0.12726486
66	0xbda8aa21	-0.082355745
67	0x3ab6214d	0.0013895422
68	0xbe44446d	-0.19166727
69	0x3b73be80	0.0037192404
70	0x3e35799e	0.17722175
71	0xbe161120	-0.1465497
72	0xbdfb5033	-0.12271156
73	0xbe32437e	-0.17408559
74	0xbd01b276	-0.031664334
75	0xbd2f6f38	-0.042830676
76	0x3d86ddf8	0.06585306
77	0x3c5527bf	0.0130099645
78	0x3d9e764f	0.07737409
79	0xbb3d008e	-0.0028839442
80	0xbe0a41d2	-0.13501671
81	0xbe39b688	-0.18136036
82	0x3def5228	0.11685592
83	0x3dfaa38a	0.12238224
84	0x3defbcf1	0.117059596
85	0xbe2e2411	-0.17005946
86	0x3d7f9b17	0.062403765
87	0xbd8c31da	-0.06845446
88	0x3e2a711e	0.16644713
89	0x3e1d5e27	0.15367948
90	0xbe13e70f	-0.1444361
91	0x3d5d439d	0.05401956
92	0x3e24396c	0.1603753
93	0xbe3b96fb	-0.18319313
94	0x3e07cff3	0.1326292
95	0xba2c26d1	-0.00065670634
96	0xbe384ec6	-0.179988
97	0x3daab073	0.08334436
98	0xbd04428b	-0.032290023
99	0x3be13d0e	0.0068737334
100	0xbe0bf080	-0.13665962
101	0xbdceaebc	-0.10091922
102	0xbe0da7fb	-0.1383361
103	0x3e2813f5	0.16413863
104	0xbe0f871a	-0.14016381
105	0x3e18e7ce	0.14932176
106	0xbd448d8e	-0.04798656
107	0xbd6bab11	-0.05753619
108	0xbca8c9e5	-0.020604083
109	0xbdbc4b92	-0.091941014
110	0xbe553806	-0.20822152
111	0x3ddb4b0c	0.107076734
112	0x3d16ba61	0.03679884
113	0xbaebd894	-0.0017993622
114	0x3e4cbf10	0.1999476
115	0xbd30b62e	-0.04314249
116	0x3e11410f	0.14184974
117	0xbdbc33a4	-0.09189537
118	0x3e12cc64	0.14335781
119	0xbd9911b0	-0.07474077
120	0xbd2e31c9	-0.042527948
121	0xbe1b7c9f	-0.15184258
122	0xbe054136	-0.13013157
123	0xbe25ee0f	-0.16204093
124	0xbe237bb9	-0.15965165
125	0xbe124704	-0.14284903
126	0xbc266933	-0.010156917
127	0xbccb6e99	-0.02483301
128	0x3e096327	0.1341673
129	0xbe10a990	-0.14127183
130	0xbba405ce	-0.005005575
131	0xbe0c63be	-0.13709924
132	0xbd381534	-0.044942096
133	0xbd0a9cc0	-0.033840895
134	0xbd01a002	-0.031646736
135	0xbd7a865b	-0.061163288
136	0x3c47884a	0.01217849
137	0x3b43588a	0.0029807412
138	0xbd61ea4b	-0.05515508
139	0x3dff14d6	0.12455146
140	0x3e23c610	0.15993524
141	0xbdd8f1ba	-0.10592981
142	0x3cecf8a4	0.028927155
143	0x3c771037	0.0150795495
144	0x3de8ff7e	0.11376856
145	0xbd4f8979	-0.050668214
146	0x3e432401	0.19056703
147	0x3d961c50	0.07329619
148	0xbe2c27ac	-0.16812009
149	0xbd81db76	-0.06340687
150	0x3dfef7e1	0.12449623
151	0x3e20cd82	0.15703395
152	0xbe1df2c4	-0.15424639
153	0xbcc1ca73	-0.023656106
154	0x3e0352c0	0.12824535
155	0xbdf5a6c2	-0.11994697
156	0xbd88b013	-0.066742085
157	0x3e49c962	0.19705728
158	0x3e11b8a6	0.14230594
159	0x3d489589	0.048970733
160	0x3e09e5e8	0.13466609
161	0xbd89a37d	-0.06720636
162	0x3c30a38a	0.010781178
163	0x3e44cc39	0.1921853
164	0x3e0c0838	0.1367501
165	0x3e2e056f	0.1699426
166	0x3e3e3e6c	0.185785
167	0x3d091976	0.033471547
168	0x3d6cc3e1	0.057803992
169	0x3d3a57c2	0.04549385
170	0x3ce510d5	0.027962128
171	0xbcb3d916	-0.0219541
172	0x3c8ce46d	0.017198766
173	0xbbbea788	-0.005818311
174	0xbe35fce0	-0.17772245
175	0xbdb0a951	-0.086260445
176	0xbe0068cd	-0.12539978
177	0xbe2a57bf	-0.16635035
178	0x3d9ef796	0.07762067
179	0x3db1eefd	0.086881615
180	0x3b163c8f	0.002292428
181	0xbd17702b	-0.036972206
182	0x3e2f2768	0.17104876
183	0xbda9b485	-0.082863845
184	0xbe331f55	-0.17492421
185	0x3e3f387d	0.18673892
186	0x3da1c0ad	0.07898078
187	0x3df30931	0.118669875
188	0x3e31ed5c	0.17375702
189	0x3bb60847	0.005555186
190	0xbd0d6c77	-0.03452727
191	0x3e16f1a9	0.14740624
192	0x3e34eada	0.17667714
193	0xbd13403e	-0.035949938
194	0xbe4232da	-0.18964711
195	0x3d17224a	0.036897935
196	0xbe222507	-0.15834437
197	0x3e2e64de	0.17030665
198	0xbdee7e21	-0.11645151
199	0x3dd66c2a	0.104698494
200	0x3e2cf575	0.1689051
201	0xbd46f316	-0.04857167
202	0x3d08546c	0.033283636
203	0xba6e6e08	-0.00090953754
204	0xbd8ec109	-0.06970412
205	0xbdc1a75d	-0.0945575
206	0xbda57616	-0.08079164
207	0xbd725338	-0.059161395
208	0xbe126fe4	-0.14300495
209	0x3db94c6c	0.090477794
210	0xbcb430e2	-0.021995965
211	0xbe35add1	-0.17742087
212	0x3d85850b	0.065195166
213	0xbc529e66	-0.012855148
214	0xbdf67c0b	-0.12035378
215	0xbe358961	-0.17728187
216	0xbd172285	-0.036898155
217	0x3de0c430	0.1097492
218	0x3df9448a	0.12171276
219	0x3df61ffd	0.1201782
220	0xbe360585	-0.17775543
221	0xbdf008f7	-0.1172046
222	0x3df94236	0.12170832
223	0x3da370b8	0.07980484
224	0x3d92bb58	0.07164639
225	0xbdaf6cd9	-0.08565683
226	0xbe331b93	-0.17490987
227	0xbe38f5db	-0.18062536
228	0xbe32dafb	-0.17466347
229	0x3d22ba71	0.039728586
230	0xbdbe1c00	-0.09282684
231	0xbdd537ce	-0.104110345
232	0x3da07cbf	0.078362934
233	0xbd150638	-0.036382884
234	0xbd2d6e30	-0.04234141
235	0x3d8e80fc	0.069581956
236	0xbdec0010	-0.115234494
237	0xbde91979	-0.11381812
238	0xbd10aad2	-0.035319157
239	0xbdf0e6d9	-0.11762781
240	0xbd6caa63	-0.05777968
241	0x3c92d8e5	0.017925689
242	0xbe32ae3e	-0.1744928
243	0x3dde6a2e	0.10860096
244	0x3d8b169b	0.06791421
245	0xbcf496be	-0.029857036
246	0x3d33ae9f	0.043867704
247	0x3d1b8f43	0.037978422
248	0x3d1a3fc1	0.037658457
249	0x3daab43f	0.083351605
250	0xbc3e768d	-0.011624944
251	0xbe21a1c9	-0.15784372
252	0xbe0ddc86	-0.13853654
253	0xbe142b3b	-0.14469616
254	0xbd39547b	-0.045246582
255	0xbe0b4774	-0.13601476

bias f4 [24]
0	0xbcb3c745	-0.021945605
1	0xbda4873b	-0.08033606
2	0xbe15baa4	-0.14621979
3	0xbe090ead	-0.13384505
4	0x3e209d8a	0.15685096
5	0xbe21dd29	-0.15807022
6	0x3d4e494d	0.050362874
7	0x3e1465ca	0.14491954
8	0xbdec4484	-0.11536506
9	0x3d0b56c7	0.034018304
10	0x3e435401	0.19075014
11	0xbe2fd043	-0.1716929
12	0xbd9ae969	-0.07564051
13	0xbe13af29	-0.14422287
14	0x3d827e74	0.06371775
15	0x3d8d9fee	0.0691527
16	0x3e397ca1	0.18113948
17	0xbdc74557	-0.097300224
18	0x3c86b375	0.016442994
19	0x3e34595a	0.1761221
20	0xbe3219e0	-0.17392683
21	0x3dc7f4bf	0.097634785
22	0xbdb5233f	-0.08844613
23	0xbcd4077c	-0.025882475

weight f4 [24]
0	0x3f2915ec	0.66049075
1	0x3eb795fb	0.35856614
2	0x3eb4a6d1	0.3528352
3	0x3f70003d	0.93750364
4	0x3f272238	0.6528659
5	0x3f309080	0.6897049
6	0x3e08dade	0.13364741
7	0x3f032d77	0.5124125
8	0x3ea121e6	0.31471175
9	0x3f3e1270	0.74246883
10	0x3f335697	0.70054
11	0x3f649a8f	0.8929834
12	0x3f2c5a4b	0.67325276
13	0x3eb6d887	0.35712072
14	0x3f4b0d3f	0.79317087
15	0x3f4c766c	0.798682
16	0x3f04e634	0.5191376
17	0x3de464a6	0.1115201
18	0x3f488415	0.7832654
19	0x3f68a459	0.90875775
20	0x3e216b26	0.1576353
21	0x3f410339	0.7539554
22	0x3f6c8202	0.92385876
23	0x3f47609c	0.7788179

bias f4 [24]
0	0x3bc1486b	0.0058985255
1	0x3d11d6d6	0.035605274
2	0xbbea0666	-0.007141876
3	0xbd2cbcdd	-0.0421723
4	0x3cea9f68	0.028640464
5	0x3cd57ae4	0.026059575
6	0xbbec33f0	-0.00720834
7	0x3ba4a734	0.005024815
8	0x3cb143b5	0.02163873
9	0x3c6de809	0.0145206535
10	0x3d189082	0.03724719
11	0x3c592311	0.013252989
12	0x3c81c2f2	0.015840027
13	0xbc17821a	-0.009247327
14	0xbd2711ae	-0.040788345
15	0x3d13e28e	0.03610473
16	0x3c610ce7	0.013735986
17	0xbc9ab2fe	-0.018884178
18	0xbc8736bb	-0.01650559
19	0x3cc93cd2	0.024565134
20	0x3c2b71df	0.010464161
21	0x3b9c66cc	0.0047729965
22	0x3c4e97cf	0.012609436
23	0x3b85f6dc	0.004088266

running_mean f4 [24]
0	0xbdc88cc7	-0.09792476
1	0xbe1a53fe	-0.15071103
2	0xbe9f75cc	-0.3114456
3	0xbe1989b4	-0.14993936
4	0xbdcd05e0	-0.10010886
5	0x3cbe7302	0.0232482
6	0x3e8a80e0	0.2705145
7	0x3c413360	0.011792034
8	0xbebe4f7f	-0.37170026
9	0xbd828f79	-0.063750215
10	0x3e96cd05	0.29453292
11	0xbe6386fa	-0.22219458
12	0xbec3a5e8	-0.38212514
13	0xbec14186	-0.37745303
14	0xbd427bfd	-0.047481526
15	0xbe23f2e7	-0.16010629
16	0x3ee581dd	0.4482564
17	0x3df4909f	0.11941647
18	0x3e237094	0.15960914
19	0x3ea63df1	0.32469133
20	0x3dcc39f8	0.09971994
21	0xbd203f51	-0.039122883
22	0xbe222ca8	-0.15837348
23	0x3e1bec6f	0.15226911

running_var f4 [24]
0	0x3b2f5d09	0.0026758334
1	0x3b169fe1	0.002298348
2	0x3c15ed12	0.00915076
3	0x3b0a04d2	0.0021060002
4	0x3c867938	0.016415223
5	0x3c1c4fdb	0.009540523
6	0x3c7717d6	0.0150813665
7	0x3bfa6b63	0.007642196
8	0x3c8fab9e	0.017537888
9	0x3b2a893c	0.002602174
10	0x3b58a660	0.0033058152
11	0x3b00bc13	0.001964335
12	0x3cc8bdd0	0.024504572
13	0x3c860e6d	0.0163643
14	0x3b8dc777	0.0043267566
15	0x3c83d87b	0.016094437
16	0x3c94eb3b	0.018178573
17	0x3c5c7a29	0.01345686
18	0x3bb941a4	0.005653577
19	0x3bea644e	0.0071530705
20	0x3cc7a34f	0.024369864
21	0x3bf62230	0.0075113997
22	0x3b233f5d	0.0024909594
23	0x3c1f2263	0.009712788

weight f4 [24, 24, 3, 3]
0	0xbdaec5a4	-0.08533791
1	0xbc6b84b8	-0.014374904
2	0xbd882c3a	-0.066490605
3	0xbd12ce20	-0.035841107
4	0x3c517fef	0.012786849
5	0xbd07d90f	-0.033165988
6	0x3d1b3e42	0.03790117
7	0x3c7ee4cc	0.015557479
8	0x3ca80e0b	0.020514509
9	0xbc0aba88	-0.008467324
10	0xbdb99e15	-0.09063355
11	0xbce40244	-0.027833112
12	0x3b9da2f0	0.0048106834
13	0x3bc4dcdd	0.0060077743
14	0x3d5811b6	0.052751265
15	0x3cf006ec	0.029300176
16	0x3d8b7482	0.068093315
17	0xbccdeb3a	-0.025136579
18	0xbd5859a8	-0.052819878
19	0xbd55a469	-0.052158747
20	0x3cc6ed22	0.024282996
21	0xbae73e08	-0.0017642388
22	0x3d1f919c	0.038957223
23	0xbbf46777	-0.007458623
24	0xbd06dc1d	-0.03292476
25	0x3c39ac08	0.011332519
26	0xbcd7a500	-0.026323795
27	0x3d523509	0.05132011
28	0xbcc90473	-0.024538254
29	0x3d29be2a	0.04144112
30	0xbcb7c0f5	-0.022430876
31	0xbd97ca0f	-0.074115865
32	0x3ca103f2	0.019655202
33	0xbcb14187	-0.021637691
34	0x3cb2f705	0.021846304
35	0x3d756f73	0.05992074
36	0x3d20111d	0.03907882
37	0x3cd6a6b2	0.026202533
38	0xbd548672	-0.05188603
39	0x3d71ce61	0.05903471
40	0x3d2af42d	0.04173677
41	0x3cf2d598	0.029642865
42	0x3d37a83d	0.04483818
43	0xbd119b9c	-0.03554879
44	0x3c6bbb69	0.014387944
45	0xbd3d818b	-0.04626612
46	0xbd50a07a	-0.050934292
47	0x3d4686d7	0.048468437
48	0xbcf0873b	-0.029361358
49	0xba68ae6a	-0.00088760874
50	0xbd48a3c0	-0.04898429
51	0x3c8d1166	0.01722021
52	0x3d4b3577	0.049611535
53	0xbcf6c483	-0.030123001
54	0x3b620e11	0.0034493248
55	0xbd2dea3d	-0.042459715
56	0x3b94e14a	0.004543458
57	0x3cd669c9	0.02617349
58	0xbd5afbd5	-0.053462822
59	0xbd9060aa	-0.07049687
60	0xbd235e9a	-0.03988514
61	0xbcd09a71	-0.025464268
62	0xbcb42e5f	-0.021994768
63	0xbd99c32b	-0.075079285
64	0x3d590083	0.052979004
65	0x3c0e56e1	0.008687706
66	0xbdb4a2f9	-0.08820147
67	0xbc2c4afa	-0.010515923
68	0x3c11cf7b	0.008899565
69	0xbc359d05	-0.0110848
70	0xbcef957a	-0.02924608
71	0xbbb2f3b2	-0.0054611797
72	0x3d0d4f21	0.03449929
73	0xbdc034ec	-0.09385094
74	0xbc648937	-0.01394873
75	0xbc0199b6	-0.007910183
76	0xbd1cbc17	-0.038265314
77	0x3d6ad6b6	0.05733367
78	0x3d0a4850	0.03376037
79	0xbd554481	-0.052067284
80	0xbcb8aaa4	-0.022542305
81	0xbc8549fb	-0.016270628
82	0xbcc5555a	-0.02408855
83	0xbc940cef	-0.018072573
84	0xbd0c565b	-0.034262042
85	0xbc590dc8	-0.013247915
86	0xbcb98456	-0.02264611
87	0x3cf81f09	0.030288236
88	0xbd7c5f39	-0.06161425
89	0xbc9db1ea	-0.019249875
90	0xbd2449cf	-0.04010945
91	0x3d71860b	0.058965724
92	0x3d86127f	0.065464966
93	0x3ca752f2	0.020425294
94	0x3d6e16e0	0.058127284
95	0x3c25c222	0.010117086
96	0xbc395dc6	-0.011313861
97	0x3bac411b	0.0052567846
98	0xbd0b42f9	-0.033999417
99	0x3d62fae3	0.055415045
100	0xbc5be458	-0.013421141
101	0x3c021c2f	0.00794129
102	0xbbdf11e5	-0.006807553
103	0xbb1b9b62	-0.0023743738
104	0xbd3a4985	-0.04548027
105	0x3cb2570b	0.021770021
106	0xbcb8f62b	-0.02257832
107	0x3d12f1ca	0.03587512
108	0xbab2ab10	-0.0013631303
109	0x3c6b9eee	0.0143811535
110	0x3c38a422	0.011269601
111	0xbd3c64ab	-0.045994442
112	0xbd1163a1	-0.035495404
113	0x3c896401	0.016771318
114	0x3bbe4b88	0.005807344
115	0x3a1de375	0.00060229684
116	0x3cf55bba	0.029950965
117	0xbccf8f59	-0.025336908
118	0xbcc75363	-0.024331754
119	0xbd98fe96	-0.074704334
120	0xbd163c77	-0.036678758
121	0x3c2f7e89	0.010711321
122	0x3c9383c3	0.018007165
123	0xbd96b712	-0.07359137
124	0x3bd266fb	0.0064209676
125	0xbba39127	-0.0049916687
126	0x3cf369e4	0.029713579
127	0xbdb47099	-0.08810539
128	0xbd24bf30	-0.040221393
129	0x3d6ad071	0.05732769
130	0x3d3200e9	0.0434579
131	0x3d91daed	0.07121835
132	0x3c092af0	0.0083720535
133	0xbbd56e01	-0.0065133576
134	0x3ce602c7	0.028077496
135	0xbd8ace9b	-0.06777688
136	0x3d376321	0.04477227
137	0xb83c5884	-4.490513e-05
138	0x3c0eadaf	0.008708402
139	0x3c69582c	0.014242213
140	0x3c7d0bc3	0.015444699
141	0x3caecdde	0.0213384
142	0x3d2b4259	0.04181132
143	0xbd0b1845	-0.033958692
144	0xbaf33870	-0.0018556248
145	0x3bf4271d	0.0074509517
146	0xbd74a7c6	-0.059730314
147	0xbd76b45f	-0.06023061
148	0x3ba8923f	0.005144387
149	0xbd6ccc73	-0.057812165
150	0xbc501e0d	-0.012702477
151	0x3d1769a1	0.03696597
152	0xbd250392	-0.040286608
153	0xbb05ef91	-0.0020436982
154	0x3d41ee45	0.047346372
155	0x3cc32041	0.02381909
156	0xbd3f2ffc	-0.04667662
157	0x3d73a6e0	0.059485316
158	0x3c7bde6c	0.015372854
159	0x3ab72a75	0.0013974445
160	0xbc9ed7c0	-0.019389987
161	0xbd2bc382	-0.041934498
162	0x3d8a326f	0.06747901
163	0x3cdf8626	0.027285647
164	0xbc249d66	-0.010047292
165	0x3d8e5699	0.06950111
166	0x3c0989ee	0.008394701
167	0x3d10a38a	0.035312213
168	0x3cc79ce0	0.024366796
169	0x3b9a2ec4	0.004705282
170	0x3c1574bc	0.00912207
171	0x3d734c5f	0.059399005
172	0x3d903aec	0.070424885
173	0xbc2f4114	-0.010696668
174	0xbcecc752	-0.028903637
175	0xbcb48daa	-0.022040207
176	0x3c138ca3	0.009005698
177	0xbd4e4b35	-0.05036469
178	0x3b778d2d	0.0037773356
179	0xbd5564ed	-0.052098203
180	0x3c4883e4	0.012238476
181	0xbd850fc3	-0.06497147
182	0x3d392d8f	0.045209464
183	0xbd6b6598	-0.057469934
184	0x3d511ebb	0.051054697
185	0x3d25aff6	0.040451013
186	0x39301872	0.00016793775
187	0xbd592651	-0.053015057
188	0xbcc96214	-0.0245829
189	0xbd94cb73	-0.07265367
190	0xbd54dc43	-0.05196787
191	0xbd4970f1	-0.049179975
192	0xbc724406	-0.014786726
193	0xbcb55ca1	-0.022138895
194	0x3d3e9b91	0.04653508
195	0xbcde6cd0	-0.027151495
196	0x3d90ea6f	0.07075965
197	0x3d43b9e0	0.047784686
198	0xbd35d2d9	-0.044390533
199	0x3d1c9386	0.038226627
200	0x3d25b160	0.04045236
201	0xbcd43cff	-0.025907991
202	0x3cec8437	0.028871639
203	0x3d8c5914	0.06852928
204	0xbd62fb07	-0.05541518
205	0xbcefae7e	-0.029258009
206	0x3d81c8c5	0.06337122
207	0xbc8f863f	-0.017520068
208	0x3cedc34e	0.029023793
209	0xbc391606	-0.011296755
210	0xbcee82b3	-0.029115057
211	0xbcb7f7bc	-0.022456996
212	0x3ce84cf0	0.028357
213	0x3d5173da	0.051135875
214	0xbd3d1b91	-0.046168867
215	0x3d86e987	0.065875106
216	0xbd023fb3	-0.03179903
217	0x3d1f3da6	0.038877152
218	0x3b9f1bf2	0.0048556263
219	0x3d071c8e	0.032986216
220	0x3d5ed5ad	0.054402996
221	0xbcd0320a	-0.025414485
222	0x3a023e51	0.00049683923
223	0xbd06f4da	-0.032948352
224	0xbcac9a67	-0.021069719
225	0x3d519398	0.051166147
226	0xbd21ec2c	-0.03953187
227	0xbd0e0ba2	-0.034679063
228	0x3c20aab0	0.00980632
229	0x3d501069	0.0507969
230	0x3d28371e	0.04106819
231	0xbc70bdef	-0.014693721
232	0xbbf3c1d1	-0.007438876
233	0x3ce755a2	0.028239075
234	0x3c88553c	0.016642205
235	0x3d1edae2	0.03878296
236	0x3d1587fd	0.03650664
237	0xbd10d161	-0.03535593
238	0xbb9efe04	-0.0048520584
239	0x3d7e5d3e	0.06210064
240	0x3d8981fc	0.06714246
241	0xbc1c8b6c	-0.009554725
242	0x3db81c0d	0.08989725
243	0xbd540058	-0.05175814
244	0xbc9d1fce	-0.019180205
245	0xbaf9eae2	-0.0019067193
246	0xbd1e9f28	-0.038726002
247	0x3d1d9a1b	0.038477045
248	0xbd0f1e1e	-0.03494083
249	0x3c47947d	0.012181398
250	0x3adde07c	0.0016927863
251	0x3bb4fae8	0.0055230744
252	0x3a275609	0.00063833647
253	0xbd2fd575	-0.042928178
254	0xbd30e781	-0.04318953
255	0x3daffe91	0.085934766

bias f4 [24]
0	0x3cab2c71	0.020895215
1	0xbc7518a5	-0.014959489
2	0xbb90d7c3	-0.004420252
3	0xbb6a53b6	-0.0035755462
4	0x3bf49524	0.007464068
5	0x3d3b9ff2	0.045806833
6	0x3d3e29c8	0.046426564
7	0xbd7a1fe8	-0.061065584
8	0xbcff07ab	-0.031131586
9	0x3d2d4c9e	0.042309396
10	0xbd5a19ad	-0.053247143
11	0x3c6a2ded	0.014293176
12	0x3d808a9e	0.06276439
13	0xbc98f3c0	-0.018670917
14	0xbd1ac4f6	-0.037785493
15	0x3caf4543	0.021395331
16	0xbcfc24b3	-0.030779218
17	0x3d895c9d	0.06707118
18	0xbd0c5029	-0.034256134
19	0xbd127530	-0.03575629
20	0xbd3c5c39	-0.045986388
21	0xbbb86d27	-0.0056282463
22	0xbc4d17fc	-0.012517925
23	0x3cdfb7fe	0.027309414

weight f4 [24]
0	0x3ef5edf7	0.48033115
1	0x3f314616	0.6924757
2	0x3e677a30	0.22605205
3	0x3ebd84fb	0.3701552
4	0x3ee466a7	0.44609568
5	0x3f375d26	0.7162651
6	0x3d8e40da	0.06945963
7	0x3ea778fd	0.32709494
8	0x3ea73e2c	0.3266462
9	0x3d0a1a25	0.03371634
10	0x3f35f48a	0.7107626
11	0x3f395f98	0.7241149
12	0x3efdfa28	0.49604917
13	0x3f69ab11	0.9127665
14	0x3e0a63f9	0.13514699
15	0x3e123d1b	0.14281122
16	0x3f0a2026	0.53955305
17	0x3da3c5d1	0.07996715
18	0x3f5bb459	0.85822064
19	0x3e613ac2	0.2199507
20	0x3ed9d4af	0.42545077
21	0x3f1699c0	0.58828354
22	0x3eb1e662	0.3474608
23	0x3eab9a37	0.33516094

bias f4 [24]
0	0x3db05957	0.0861079
1	0x3dd2d1a7	0.10293894
2	0x3c18cba8	0.009325899
3	0x3d1fee2f	0.03904551
4	0x3c8d94ba	0.017282832
5	0x3d49bbb2	0.049251266
6	0x3b83d814	0.0040235613
7	0xbcec40d2	-0.028839502
8	0xbd0a4a94	-0.03376253
9	0xbdf45497	-0.11930197
10	0x3d9e0308	0.07715422
11	0x3c4dacf7	0.012553445
12	0x3cdf0610	0.02722457
13	0xbd398039	-0.0452883
14	0x3d2113cc	0.03932552
15	0x3dca4aa0	0.09877515
16	0x3d8ea81b	0.06965657
17	0x3dc59aad	0.09648643
18	0xbcb11eef	-0.021621196
19	0x3d85aeb3	0.06527462
20	0x3d99c99f	0.07509159
21	0x3de2274e	0.11042653
22	0x3da7a5d3	0.08185925
23	0x3d205eb7	0.039152827

running_mean f4 [24]
0	0x3b9edf34	0.004848385
1	0x3d97172b	0.07377466
2	0x3d18c5ec	0.037298128
3	0xbdc86d70	-0.097864985
4	0xbcad33af	-0.021142809
5	0x3e80e3b0	0.25173712
6	0x3db5f09d	0.08883784
7	0xbe08f8d6	-0.13376173
8	0x3e4cf4d7	0.20015274
9	0x3d5172fd	0.051135052
10	0xbeb5be84	-0.35496914
11	0xbd8c86d0	-0.06861651
12	0xbd380504	-0.04492666
13	0x3e14da58	0.14536417
14	0xbdfd2cc8	-0.12362057
15	0x3e2c14de	0.16804835
16	0x3d5a5722	0.053305753
17	0x3d89a305	0.06720547
18	0x3dadc3f0	0.08484638
19	0xbe061d9a	-0.1309723
20	0xbcb434a9	-0.021997767
21	0x3e4bfb20	0.19920015
22	0x3cc046d3	0.023471272
23	0x3cfcaa9b	0.03084307

running_var f4 [24]
0	0x3d2cb640	0.042165995
1	0x3ea726d5	0.32646814
2	0x3c96bb97	0.018399997
3	0x3c3c64c1	0.011498631
4	0x3d658211	0.056032244
5	0x3e88c9fe	0.26716608
6	0x3d23f249	0.040025983
7	0x3d6682ae	0.05627697
8	0x3d8f828e	0.07007323
9	0x3d2ae101	0.041718487
10	0x3e1777e4	0.14791828
11	0x3e58452b	0.21120135
12	0x3d304344	0.0430329
13	0x3dc577ce	0.096419916
14	0x3e034c6d	0.12822123
15	0x3ccc2620	0.024920523
16	0x3dbe2822	0.092849985
17	0x3da5aed0	0.080899835
18	0x3d7c9145	0.061661977
19	0x3c7f4f4a	0.015582869
20	0x3e6a38c4	0.22873217
21	0x3e201a61	0.15635063
22	0x3d5d40b6	0.05401679
23	0x3d41ec3e	0.04734444

weight f4 [48, 24, 3, 3]
0	0xbd8b5f70	-0.06805313
1	0xbd15ee89	-0.036604438
2	0xbd57f3e0	-0.05272281
3	0x3c894e6b	0.016761025
4	0x3d280fb3	0.041030597
5	0x3ccc0c4a	0.024908204
6	0xbd8f674a	-0.07002123
7	0x3d2e142a	0.0424997
8	0xbd3a0479	-0.04541442
9	0x3cad057a	0.021120775
10	0x3d6fb0bc	0.058518156
11	0x3cc2f8bb	0.023800245
12	0xbd390d6a	-0.04517881
13	0xbd4768a4	-0.048683777
14	0xbcd2278e	-0.025653627
15	0x3d80cbb3	0.062888525
16	0x3d044d7d	0.03230046
17	0xbd1f3b0a	-0.038874663
18	0xbd355b06	-0.04427626
19	0x3cc0dd60	0.02354306
20	0xbc356414	-0.011071224
21	0x3d305131	0.04304618
22	0xbd880511	-0.06641591
23	0x3d0b8dc5	0.03407075
24	0x3d5eb825	0.054374833
25	0x3bbdf585	0.0057970905
26	0x3d2a241e	0.04153835
27	0xbd0d408d	-0.03448539
28	0x3c46cb81	0.01213348
29	0xbdc3b258	-0.09555501
30	0xbda9b30f	-0.08286106
31	0xbd558f7a	-0.052138783
32	0xbd54c2e8	-0.05194369
33	0x3d05a53a	0.032628275
34	0x3c6d3594	0.014478106
35	0x3bb4cee3	0.005517827
36	0xbd0569e0	-0.032571673
37	0x3c68c550	0.014207199
38	0xbce5950f	-0.028025178
39	0xbb42351f	-0.0029633713
40	0x3d5a585c	0.053306922
41	0xbcd61ade	-0.026135858
42	0xbbcbb24b	-0.0062163225
43	0x3d1c855d	0.038213123
44	0xbd209c99	-0.039211843
45	0xbd3a6bba	-0.045512892
46	0xbd390194	-0.04516752
47	0xbdbf4963	-0.09340169
48	0xbd443d37	-0.04790994
49	0xbc93cbad	-0.018041456
50	0xbbf4944b	-0.007463967
51	0x3c6f76a3	0.014615688
52	0x3ccad7cd	0.024761105
53	0xbc57e86e	-0.013177974
54	0x3d389cbe	0.045071356
55	0x3cb7a59b	0.022417834
56	0x3d347c0b	0.04406361
57	0xbcbe0726	-0.023196768
58	0x3b48820b	0.003059509
59	0xbd883054	-0.06649843
60	0xbc2fed89	-0.010737785
61	0xbcb7397a	-0.022366274
62	0x3c8d0165	0.017212579
63	0x3c3e1648	0.011601992
64	0xbd5b97d0	-0.053611577
65	0x3d14e652	0.036352463
66	0x3c311519	0.010808253
67	0xbd6e45da	-0.058172084
68	0x3c0b0729	0.008485594
69	0x3d2cfe5a	0.042234756
70	0xbb8b0439	-0.0042424467
71	0x3cd68a89	0.026189106
72	0xbcf539e1	-0.029934825
73	0xbbe373ee	-0.00694131
74	0x3d56ff98	0.052489847
75	0x3cd78e26	0.026312899
76	0xbd2d4d93	-0.04231031
77	0xbd3b204d	-0.0456851
78	0xbd26b69d	-0.040701497
79	0xbd7ace0d	-0.06123166
80	0xbc8adda8	-0.016951397
81	0xbbfcbb3a	-0.007712749
82	0xbda0240a	-0.07819374
83	0xbc1bd2ae	-0.009510679
84	0x3b022e8f	0.0019864177
85	0x3ce7a81b	0.028278401
86	0xbd1b710e	-0.037949614
87	0x3d28f534	0.04124947
88	0xbd09bf8a	-0.03362993
89	0x3d4d7181	0.050157074
90	0xbca1447e	-0.01968598
91	0x3ca24bb3	0.019811487
92	0xbd2c1eb3	-0.042021465
93	0xbd907b08	-0.07054716
94	0x3d8554a5	0.06510285
95	0xbc82b7e2	-0.015956823
96	0x3d2b220c	0.041780517
97	0x3d39d7ce	0.045371823
98	0x3afbaf65	0.0019202052
99	0x3c47d8b1	0.012197659
100	0x3d598db9	0.053113673
101	0x3d8fecbf	0.070275776
102	0xbd80436a	-0.06262858
103	0x3d315102	0.043290146
104	0x3ae6af6a	0.0017599885
105	0xbd5f39f7	-0.05449864
106	0xbd810dc1	-0.063014515
107	0x3c98d2d5	0.01865522
108	0x3cecfa55	0.028927961
109	0x3d3999bf	0.04531264
110	0x3bcc9cb9	0.0062442687
111	0xbcedb050	-0.029014736
112	0xbce59d45	-0.028029094
113	0x3c843474	0.016138293
114	0xbb92cfb3	-0.004480326
115	0x3dba4b61	0.09096409
116	0xbd109a37	-0.03530332
117	0xbd46ae7d	-0.04850625
118	0x3cc3733f	0.023858665
119	0xbd04aa4a	-0.032388963
120	0x3c24d723	0.010061058
121	0x3d76accf	0.060223397
122	0xbc202ead	-0.009776753
123	0xbd05ea06	-0.032693885
124	0xbd6f6890	-0.058449328
125	0xbc4618a1	-0.012090833
126	0x3ab08891	0.0013468434
127	0x3d77e7d2	0.060523815
128	0xbc819cd9	-0.015821861
129	0x3c46108e	0.012088908
130	0x3ca900d3	0.020630276
131	0xbb78bcc6	-0.0037954315
132	0x3c9a0202	0.018799786
133	0xbcbdd121	-0.02317101
134	0x3c13faa2	0.0090319235
135	0xbd933473	-0.07187738
136	0xbd3a81e9	-0.04553405
137	0x3ca92323	0.020646637
138	0xbcfc2ded	-0.030783618
139	0x3d58f731	0.052970115
140	0xbd534032	-0.051574893
141	0x3d643ff9	0.05572507
142	0xbb314787	-0.002705069
143	0xbbb86ba0	-0.0056280643
144	0xbd944835	-0.07240335
145	0x3d97d4a2	0.07413603
146	0x3ccb5c01	0.024824144
147	0xbd1d81f3	-0.038454007
148	0xbcfb6db2	-0.030691955
149	0x3d057746	0.03258445
150	0xbd83f54d	-0.06443272
151	0xbcb5f32f	-0.022210686
152	0x3cb96c3d	0.02263462
153	0x3c94b43d	0.01815235
154	0xbd655af0	-0.055994928
155	0x3d5dd788	0.054160625
156	0xbc4f3bf0	-0.012648568
157	0xbd0f17e3	-0.03493489
158	0x3bbf7a70	0.005843453
159	0x3d511c83	0.05105258
160	0x3d6b1663	0.057394397
161	0xbc93193d	-0.01795637
162	0xba4d9e15	-0.00078436855
163	0xbcfe0b78	-0.031011328
164	0xbce2f5ee	-0.027705159
165	0x3d67a46b	0.056553286
166	0x3d9d022f	0.07666432
167	0xbd6242fa	-0.055239655
168	0x3ceb3e55	0.028716246
169	0x3d6a2328	0.057162434
170	0xbd4e1cf0	-0.050320566
171	0x3cc70bba	0.024297584
172	0x3ccf728d	0.025323177
173	0x3c357794	0.011075873
174	0x3a4ab710	0.0007732967
175	0xbd0ea06b	-0.034820955
176	0x3c1a493c	0.0094168745
177	0x3d818438	0.06324047
178	0x3db0cba6	0.08632593
179	0xbd45ebd6	-0.048320614
180	0x3c4dc476	0.012559047
181	0x3c006385	0.007836227
182	0x3d12b687	0.035818603
183	0xbd6f1669	-0.05837098
184	0x3c81cbac	0.015844189
185	0xbc82383b	-0.015895953
186	0xba92714f	-0.0011172685
187	0xbc30910f	-0.010776772
188	0xbcd7c2f4	-0.026338078
189	0x3ca7c24a	0.020478386
190	0xbd84e279	-0.06488509
191	0x3d2ba83c	0.041908488
192	0xbd24294a	-0.04007844
193	0xbd376a28	-0.044778973
194	0x3a859fb5	0.0010194691
195	0xbd8e75be	-0.06956051
196	0xbc81a5c2	-0.01582611
197	0xbd7f0882	-0.062263973
198	0xbd2f4ebe	-0.042799704
199	0x3d53820d	0.051637698
200	0xbc3fd8bd	-0.011709389
201	0xbd49deb2	-0.049284644
202	0x3d1cd9b7	0.038293567
203	0xbd6a71b8	-0.057237357
204	0xbc994c6e	-0.018713202
205	0xbcb4dfed	-0.022079432
206	0x3d819c34	0.063286215
207	0x3d019011	0.031631533
208	0x3cc96e43	0.02458871
209	0x3d14ba80	0.036310673
210	0x3ceb806f	0.028747765
211	0xbc07bc02	-0.008284571
212	0x3d80a916	0.062822506
213	0x3d67a327	0.05655208
214	0x3c36a98f	0.011148824
215	0x3c7ef1d5	0.015560587
216	0x3d6fb077	0.0585179
217	0xbcfbff2f	-0.03076133
218	0x3adeefa2	0.0017008672
219	0xbcf4922a	-0.029854853
220	0x3d78a0fd	0.060700405
221	0x3c78e250	0.015190676
222	0xbc5444d8	-0.012955867
223	0x3d122238	0.035677165
224	0xbd1a3f39	-0.03765795
225	0x3d39e662	0.045385726
226	0xbcb9c74a	-0.022678036
227	0xbd894995	-0.06703488
228	0xbc846cef	-0.016165225
229	0xbb5584dc	-0.003258041
230	0xbd4ebc75	-0.050472695
231	0x3d3ab478	0.045582265
232	0x3cc438ed	0.023952926
233	0xbcde7753	-0.027156508
234	0xbd6360cf	-0.055512246
235	0xbca6b6ad	-0.020350778
236	0xbd5cbeff	-0.053893086
237	0xbb417703	-0.00295204
238	0x3c13405a	0.008987511
239	0x3ce77ea2	0.028258625
240	0x3d5e91e9	0.05433837
241	0xbd267b36	-0.040644847
242	0x3d462d03	0.04838277
243	0xbcf8f5f3	-0.030390715
244	0x3c59ab55	0.013285478
245	0xbae821b5	-0.0017710241
246	0xbd832086	-0.06402688
247	0x3d5ec1e9	0.054384146
248	0x3ae17067	0.0017199636
249	0x3d06817d	0.032838333
250	0x3d0e28b5	0.03470679
251	0xbcb832c4	-0.022485144
252	0x3cb22f1f	0.021750985
253	0x3d23d038	0.039993495
254	0x3c9a2420	0.018816054
255	0x3c9b2b2d	0.018941486

bias f4 [48]
0	0x3c079730	0.008275792
1	0x3d4c20d2	0.049835987
2	0xbd252ba2	-0.040324815
3	0xbd0caf20	-0.0343467
4	0xbbc08f3d	-0.0058764503
5	0xbcd546ca	-0.026034731
6	0x3d82bd34	0.06383744
7	0x3c26156a	0.010136941
8	0x3d5e58d3	0.054283928
9	0x3d844b66	0.064596936
10	0xbd07fcde	-0.033200137
11	0x3d153393	0.036426138
12	0x3d8181fc	0.06323621
13	0xbbbd1645	-0.005770477
14	0x3d27d938	0.04097864
15	0x3d5c2f3e	0.05375599
16	0x3d11f035	0.03562947
17	0x3b2ba1be	0.0026188935
18	0xbce45305	-0.027871618
19	0x3d2658e7	0.040612128
20	0xbcceb6fe	-0.025233742
21	0x3b599f66	0.003320658
22	0x3d017051	0.031601254
23	0xbc675a45	-0.014120643
24	0x3c3abc7d	0.011397478
25	0x3d827e86	0.06371789
26	0x3d14a2a7	0.03628793
27	0xbce51590	-0.027964383
28	0x3c8736dc	0.016505651
29	0xbd7ea0f7	-0.062165227
30	0xbd2faf42	-0.04289175
31	0xbbb1e951	-0.005429425
32	0x3cfa9402	0.030588154
33	0xbd04be86	-0.03240826
34	0xbc36690a	-0.011133442
35	0xbd124e38	-0.035719126
36	0xbd6168a2	-0.055031426
37	0xbccb0998	-0.024784848
38	0xbc9c9cf4	-0.01911781
39	0xbd888716	-0.066663906
40	0xbbef489f	-0.0073023583
41	0x3aad366e	0.0013215074
42	0x3c146b51	0.009058789
43	0xbd75cd59	-0.060010288
44	0x3ceea862	0.029133026
45	0xbd883b65	-0.066519536
46	0xbd467c95	-0.048458654
47	0xbcd62ed2	-0.026145373

weight f4 [48]
0	0x3f77fad0	0.96867085
1	0x3f32cec4	0.6984675
2	0x3efa9a96	0.48946065
3	0x3f7743ea	0.96588004
4	0x3f37cddb	0.71798486
5	0x3ea6d913	0.3258749
6	0x3e9630a6	0.2933399
7	0x3f653556	0.8953451
8	0x3f4550cd	0.7707642
9	0x3e6917de	0.22763011
10	0x3f382916	0.7193769
11	0x3eca6901	0.39533237
12	0x3eabdd8b	0.3356746
13	0x3f0d1093	0.55103415
14	0x3f318d63	0.69356364
15	0x3ee36663	0.44414052
16	0x3e4a919c	0.19782108
17	0x3f4e70f6	0.80641115
18	0x3f7c2aff	0.98503107
19	0x3ef4c2f4	0.47804987
20	0x3e11fb98	0.14256132
21	0x3f521f39	0.8207889
22	0x3f004881	0.5011063
23	0x3ed83920	0.42231083
24	0x3f4c9a26	0.7992271
25	0x3f0c4cd5	0.54804736
26	0x3f17e71f	0.5933704
27	0x3f15f425	0.5857566
28	0x3f3021c8	0.68801546
29	0x3f5abc11	0.85443217
30	0x3ea8bafa	0.32955152
31	0x3f685586	0.907555
32	0x3f612c46	0.8795818
33	0x3f38a7f2	0.72131264
34	0x3f4f0c5b	0.8087823
35	0x3f661aaa	0.89884436
36	0x3f1724a0	0.5904026
37	0x3ee7df72	0.45287663
38	0x3e4efa19	0.20212592
39	0x3e87ddb9	0.26536348
40	0x3f0e9ab0	0.55704784
41	0x3d89a38d	0.06720648
42	0x3f749a56	0.95548
43	0x3f73c43a	0.9522129
44	0x3f316f54	0.693105
45	0x3f3f0969	0.74623734
46	0x3d906661	0.07050777
47	0x3f5428b2	0.82874596

bias f4 [48]
0	0x3c0d1491	0.00861086
1	0x3ca7662a	0.020434458
2	0x3cb8e424	0.022569723
3	0x3ced9ce6	0.029005479
4	0xbce75138	-0.02823697
5	0x3c280c46	0.010256832
6	0x3d1a056c	0.037602827
7	0xbc501291	-0.012699739
8	0xbc47f401	-0.012204171
9	0xba1b321f	-0.00059202494
10	0x3a8c9f68	0.0010728659
11	0x3d29940d	0.041400958
12	0xbbfed909	-0.0077773375
13	0x3ce5d8bf	0.028057454
14	0x3c5f69cb	0.013636063
15	0xbb89b2f6	-0.004202242
16	0x3c924cef	0.01785895
17	0x3c585c40	0.013205588
18	0x3b9cfa7a	0.0047906013
19	0x3d8719d0	0.0659672
20	0x3c06d30c	0.008229028
21	0xbcd4a850	-0.025959164
22	0x3cc5c485	0.02414156
23	0xbce53363	-0.027978605
24	0x3c0baa87	0.008524544
25	0x3caab2fe	0.020837303
26	0x3d409b53	0.04702313
27	0x3b9833c4	0.004644843
28	0x3b270bd8	0.0025489237
29	0x3b2c33ef	0.0026276072
30	0x3c4c7c96	0.0124808755
31	0xbacb6a79	-0.0015519402
32	0xb9c802be	-0.00038149016
33	0xbd739003	-0.059463512
34	0xbae92331	-0.0017786977
35	0x3b8a774e	0.004225648
36	0x3c05851b	0.008149411
37	0x3bd35fc0	0.0064506233
38	0x3cc82ca5	0.02443535
39	0x3d390b95	0.04517706
40	0xbd8b737e	-0.06809138
41	0xba6e727f	-0.0009096041
42	0x3bdb311a	0.006689203
43	0xbb0fab55	-0.002192219
44	0x3b811aeb	0.0039399765
45	0x3b8195bb	0.003954617
46	0x3d77f803	0.060539257
47	0x3c36d254	0.011158545

running_mean f4 [48]
0	0xbe0403b6	-0.1289204
1	0x3e395244	0.18097788
2	0xbd7114db	-0.05885778
3	0x3e2a3864	0.16623074
4	0x3deabfbc	0.11462352
5	0xbe2b51c8	-0.16730416
6	0x3d71470b	0.058905642
7	0xbda1e6f2	-0.079053774
8	0xbe595374	-0.21223241
9	0x3eb301cf	0.34962317
10	0xbe32494b	-0.17410772
11	0x3e97b145	0.29627433
12	0x3ceb287e	0.028705832
13	0x3e97befe	0.29637903
14	0x3eddbd6c	0.4330858
15	0x3e40c3cd	0.18824692
16	0xbe6ee592	-0.23329762
17	0x3dce0fd4	0.10061613
18	0xbd2a92bf	-0.041643854
19	0xbe5afd38	-0.21385658
20	0xbecd969a	-0.40153962
21	0x3e90b782	0.28265005
22	0x3e7d378d	0.24728222
23	0x3c06fa91	0.008238451
24	0xbef14e28	-0.4712994
25	0x3e2501ea	0.16114011
26	0x3ebce29f	0.36891648
27	0xbec73dd1	-0.3891435
28	0xbd5d343d	-0.054004896
29	0xbe7be83c	-0.24600309
30	0x3dfe2ea1	0.124112375
31	0x3e1a6ce4	0.15080601
32	0xbedb2233	-0.4279953
33	0xbe4248d8	-0.189731
34	0xbe3943a7	-0.18092214
35	0x3e6f049f	0.23341607
36	0x3e99c85c	0.30035675
37	0x3d33b2ba	0.04387162
38	0x3d7f628e	0.06234985
39	0xbdbb72e4	-0.09152773
40	0xbe2520b4	-0.16125757
41	0xbe8a1213	-0.26966915
42	0xbe7ea00a	-0.24865738
43	0xbe762915	-0.24039109
44	0x3e2606cc	0.1621353
45	0xbe71ec8e	-0.23625395
46	0xbeb36f39	-0.35045794
47	0x3df402a6	0.11914568

running_var f4 [48]
0	0x3e793888	0.24337971
1	0x3e48e80e	0.19619772
2	0x3e1ee066	0.15515289
3	0x3e1c8b8c	0.15287608
4	0x3d2c8a06	0.042123817
5	0x3dd3b8ff	0.103380196
6	0x3d0986a1	0.033575658
7	0x3d80b68e	0.062848195
8	0x3dc201b3	0.0947298
9	0x3e09ca52	0.13456085
10	0x3db002cd	0.08594284
11	0x3dc9b973	0.09849825
12	0x3eb3cc37	0.3511674
13	0x3d4b520b	0.04963879
14	0x3d6ddcd3	0.058071923
15	0x3dd5c526	0.10437994
16	0x3d41bd37	0.04729959
17	0x3d4e7afb	0.050410252
18	0x3eb161c2	0.34644896
19	0x3d2fafb5	0.042892177
20	0x3d768c07	0.060192134
21	0x3d9e1512	0.077188626
22	0x3d639769	0.055564318
23	0x3d600a42	0.054697283
24	0x3d98db7c	0.07463738
25	0x3ea46484	0.32107937
26	0x3e09816a	0.13428274
27	0x3dbfcaae	0.0936483
28	0x3dd796f1	0.10526837
29	0x3d4b1bfc	0.049587235
30	0x3e70b839	0.23507775
31	0x3e04b2fd	0.12958904
32	0x3da55a17	0.08073824
33	0x3d4338f1	0.047661725
34	0x3e8603ac	0.26174676
35	0x3dfc01ac	0.123050064
36	0x3d92dd8f	0.07171165
37	0x3ea537a2	0.32269007
38	0x3d1b3957	0.03789648
39	0x3d2f97a9	0.042869244
40	0x3d8ba135	0.06817857
41	0x3da4b1d5	0.08041731
42	0x3d6b3c6e	0.057430677
43	0x3dbb27e5	0.09138469
44	0x3ecdf61f	0.40226838
45	0x3d967b46	0.07347731
46	0x3dc82952	0.09773506
47	0x3dabd0ff	0.08389472

weight f4 [48, 48, 3, 3]
0	0x3cc64239	0.0242015
1	0xbbf91672	-0.0076015526
2	0xbc814c6e	-0.015783515
3	0x3d39cb97	0.045360174
4	0xbbe68821	-0.007035271
5	0x3b8c33a9	0.0042786193
6	0x3d6fc94c	0.05854158
7	0xbcd6310a	-0.02614643
8	0xbc99cd4d	-0.018774653
9	0x3c242738	0.010019116
10	0x3c79ef82	0.015254857
11	0x3d163873	0.036674928
12	0x3d20642c	0.03915803
13	0xbd3ac8c9	-0.04560164
14	0xbd1415ff	-0.03615379
15	0xbd61c07b	-0.055115204
16	0x3c742f65	0.014903878
17	0xbd4cc793	-0.049995016
18	0xbd27538e	-0.04085117
19	0xbbdae0a2	-0.0066796103
20	0xbcd427ad	-0.025897825
21	0x3cf02738	0.029315576
22	0xbd3af7d4	-0.045646504
23	0xbccd3818	-0.025051162
24	0x3c2a2d58	0.010386787
25	0xbcc572f4	-0.024102665
26	0x3bd6664a	0.0065429555
27	0xbc3c58c6	-0.011495775
28	0xb992febc	-0.00028037082
29	0x39bc99ba	0.0003597269
30	0xbd2633f0	-0.040576875
31	0x3d238a52	0.039926834
32	0x3c876d0a	0.016531486
33	0x3b30e73f	0.0026993302
34	0xbb8d9c84	-0.0043216366
35	0x3d0ce467	0.03439751
36	0xbbe9bdba	-0.007133213
37	0x3c10cdcc	0.008838128
38	0xba0a1a9e	-0.00052682485
39	0xbc687f52	-0.014190512
40	0x3cbaceab	0.022803625
41	0x3cb0efa4	0.021598645
42	0x3c7dbfed	0.015487653
43	0xbc82b908	-0.01595737
44	0xba424830	-0.00074112695
45	0x3c85312e	0.016258802
46	0x3ce384ab	0.027773222
47	0xbc65f776	-0.01403605
48	0xbd15a5d0	-0.036535084
49	0xbc3b0d7c	-0.011416789
50	0x3c5d524c	0.013508391
51	0xbcb69744	-0.022288926
52	0x3cfa5fbc	0.030563228
53	0x3d4dd199	0.050248716
54	0x3b2bb5b5	0.0026200835
55	0x3d070136	0.03296014
56	0xbccb8d99	-0.024847792
57	0xbd40d1fc	-0.047075257
58	0xbc69d098	-0.014270924
59	0xbc362789	-0.011117824
60	0xbd1b0e58	-0.037855476
61	0xbc112ce8	-0.008860804
62	0xbd5a24ad	-0.053257633
63	0x3ca6db87	0.02036835
64	0x3d1573fc	0.036487564
65	0x3d3ef9e9	0.04662505
66	0x3d6fce52	0.05854637
67	0x3ce89b2a	0.0283943
68	0x3c334931	0.010942743
69	0xbcbf9233	-0.023385143
70	0x3cdf7ca6	0.027281117
71	0x3d2ca30a	0.042147674
72	0xbd47b171	-0.048753206
73	0xbbdaf869	-0.006682445
74	0xbd337cac	-0.04382007
75	0xbd4233aa	-0.047412552
76	0xbb1d03c8	-0.0023958553
77	0xbcb793ef	-0.022409407
78	0x3cc0c2aa	0.023530323
79	0x3c64f502	0.01397443
80	0xbb2456e7	-0.0025076212
81	0x3d2c22ba	0.042025305
82	0xbd47e2b4	-0.048800185
83	0x3d28b5f1	0.041189138
84	0x3c75c8f8	0.015001528
85	0x3d2b6ec4	0.04185368
86	0xbd332a2d	-0.043741394
87	0x3b8d913b	0.0043202913
88	0xbd61e994	-0.055154398
89	0xbc616ae9	-0.0137583995
90	0x3bea43e9	0.007149209
91	0xbcf84ace	-0.030309107
92	0xbd17518d	-0.036943007
93	0xba41be02	-0.0007390679
94	0x3c0e9afe	0.008703945
95	0xbca819ec	-0.020520173
96	0x3c6aa4a8	0.014321484
97	0xbcc6c219	-0.024262475
98	0xbd0d755a	-0.034535743
99	0xbbe6a21c	-0.007038368
100	0xbcdf9b40	-0.027295709
101	0x3c8efbcb	0.017454049
102	0x3c0e20cb	0.008674811
103	0xbce22b81	-0.027608635
104	0x3cbcaa4e	0.023030426
105	0x3c049cf7	0.008094064
106	0x3c4a5f25	0.012351786
107	0xbd34f8ea	-0.044182695
108	0xbd2b408a	-0.041809596
109	0x3c1cd9e7	0.009573436
110	0xbcbb6fa7	-0.022880388
111	0xbd38af36	-0.04508897
112	0xbbaa93a2	-0.0052055875
113	0x3cf3d104	0.029762752
114	0xbd6f0a91	-0.058359686
115	0x3ba4ee1c	0.0050332677
116	0xbd032e75	-0.032026727
117	0xbd38bbf1	-0.04510111
118	0x3d123167	0.035691645
119	0x3c1bab95	0.009501358
120	0xbc2ae393	-0.0104302345
121	0x3cc27bd4	0.023740686
122	0x3be8b2f7	0.0071014124
123	0xbd556db4	-0.052106574
124	0x3c7680ed	0.015045387
125	0xbc32c17e	-0.01091039
126	0x3ce60321	0.028077664
127	0xbbd1901e	-0.006395354
128	0xbcfa49ed	-0.030552829
129	0xbd0d2b94	-0.034465387
130	0xbd3e1e45	-0.046415586
131	0xbb081fb8	-0.002077086
132	0xbc957ed3	-0.018248951
133	0xbc59b499	-0.013287687
134	0x3c94e875	0.01817725
135	0xbd4d79a2	-0.050164826
136	0xbd1cf05b	-0.03831516
137	0x3c945f6b	0.018111905
138	0x3cd1d9aa	0.025616486
139	0xbbe5a6bc	-0.0070084017
140	0xbd1d3ab2	-0.038386054
141	0x3b800626	0.003906983
142	0x3c9311d6	0.01795284
143	0xbc2037bf	-0.009778916
144	0x3d8cd9bf	0.06877469
145	0x3cb6a08a	0.022293348
146	0x3d7f2501	0.06229115
147	0x3aa05bb6	0.0012234363
148	0x3ceed810	0.029155761
149	0xbbf246d7	-0.0073936987
150	0xbac78866	-0.0015223145
151	0xbcb4e888	-0.022083536
152	0x3ca70da0	0.02039224
153	0x3c38a2ea	0.0112693105
154	0x3c876280	0.01652646
155	0xb8bf19d1	-9.1123984e-05
156	0x3d0577d9	0.032585
157	0x3b9f7f0b	0.0048674396
158	0xbd41bcce	-0.0472992
159	0xbc99dab0	-0.018781036
160	0x3ccc9da8	0.02497752
161	0x3cb8e817	0.022571607
162	0x3d1ab577	0.037770715
163	0x3ccd237e	0.025041338
164	0xbccba3bc	-0.024858348
165	0xbc9409af	-0.018071024
166	0xbc03e292	-0.008049624
167	0x3c22c718	0.009935163
168	0xbd696396	-0.05697974
169	0xbca60ee1	-0.020270767
170	0x3d2acd14	0.041699484
171	0x3d83f464	0.06443098
172	0xbbbb8519	-0.0057226536
173	0x3d805ffd	0.06268308
174	0x3d1b58d4	0.03792651
175	0x3d14a855	0.036293346
176	0x3cc60bab	0.024175486
177	0x3a8f2f41	0.0010924117
178	0xbd051821	-0.032493714
179	0x3c360399	0.011109256
180	0x3d3fd4bf	0.04683375
181	0xbd844d43	-0.06460049
182	0xbd3bd0c7	-0.045853402
183	0x3ba3170e	0.0049771136
184	0xbcee76ae	-0.029109325
185	0x3ccca29b	0.02497988
186	0x3c330a2b	0.010927717
187	0x3d1accc1	0.037792925
188	0x393a5534	0.00017770083
189	0xbceaef6f	-0.028678624
190	0xbc9ce2eb	-0.019151172
191	0x3d043bec	0.03228371
192	0x3d28e302	0.041232117
193	0xbd1892bb	-0.037249308
194	0x3d711860	0.058861136
195	0x3bc8b1c4	0.006124707
196	0x3d3be8a1	0.04587615
197	0x3d95abcd	0.07308159
198	0xbc9a7fc5	-0.018859753
199	0xbcec48c7	-0.028843297
200	0xbd44c231	-0.048036758
201	0x3c1069e8	0.0088143125
202	0xbc89390c	-0.016750835
203	0x3be39298	0.0069449656
204	0xbc1414a7	-0.009038127
205	0xbc2149c9	-0.009844252
206	0xbd843e0b	-0.06457146
207	0x3d2d7899	0.04235134
208	0x3cf45b2d	0.029828632
209	0x3cb11c06	0.021619808
210	0xbbd0da11	-0.006373652
211	0xbb559e9a	-0.0032595755
212	0xbce3f41e	-0.027826365
213	0xbc0fce3a	-0.008777196
214	0x3d5f859c	0.05457078
215	0x3d37e5b5	0.0448968
216	0x3bf19ca3	0.007373409
217	0xbd13054f	-0.035893735
218	0x3d0df0a6	0.03465333
219	0x3cf9efa6	0.030509781
220	0x3d090117	0.033448305
221	0xbcd91712	-0.026500259
222	0x3d824996	0.06361692
223	0x3d8dbde5	0.06920985
224	0x3d2034ce	0.03911286
225	0x3c994c0c	0.01871302
226	0xbd3062af	-0.043062862
227	0xbc13ff36	-0.009033015
228	0xbd1cc172	-0.03827042
229	0x3c320f46	0.010867899
230	0x3c78aeb8	0.015178375
231	0xbd3af884	-0.04564716
232	0xbc986260	-0.018601596
233	0x3ce165f5	0.027514437
234	0xbc1091d7	-0.008823833
235	0x3c36360d	0.011121285
236	0x3c55b95a	0.01304468
237	0x3d06c642	0.032903917
238	0xbd4b1bf7	-0.049587216
239	0xbcce7d50	-0.025206238
240	0x3c9184be	0.017763492
241	0xbd27e69d	-0.040991414
242	0x3bcfefb3	0.006345713
243	0x3d6ed991	0.058312956
244	0xbcffa346	-0.031205785
245	0xbbfabba0	-0.007651761
246	0x3d17ce37	0.037061896
247	0x3bafc04e	0.0053635007
248	0x3cc62fcc	0.024192713
249	0x3cfac485	0.030611286
250	0xbd228b02	-0.03968335
251	0x3bef96ff	0.0073117013
252	0x3bb08fc4	0.005388232
253	0x3c89d59d	0.016825492
254	0x3d54d25f	0.051958438
255	0x3c86dd0d	0.016462827

bias f4 [48]
0	0x3bf16730	0.0073670372
1	0xbd15d18b	-0.03657679
2	0x3d3d7351	0.046252552
3	0x3c46d1a3	0.012134942
4	0xbc496a34	-0.012293387
5	0x3d1eb4bc	0.03874658
6	0x3cca4c22	0.024694506
7	0xbbb66812	-0.0055666054
8	0xbd2f7735	-0.042838294
9	0xbc89174e	-0.016734745
10	0x3d05eba2	0.03269542
11	0xbbe9e62e	-0.0071380353
12	0x3cb24308	0.021760479
13	0xbcad0dcd	-0.021124745
14	0x3ccf1d8f	0.02528265
15	0x3d02ffd3	0.031982254
16	0xbc008e4e	-0.007846428
17	0xbd15c806	-0.03656771
18	0xbd0bd8cf	-0.03414231
19	0x3c19b7ff	0.009382247
20	0xbbd7c066	-0.006584215
21	0x3d158f0e	0.03651338
22	0x3d3c901a	0.046035863
23	0x3ce702fa	0.028199662
24	0xbd368461	-0.04455984
25	0xba78aa92	-0.0009485866
26	0x3ba1279e	0.004918053
27	0x3d0c99ac	0.03432624
28	0xbc8d5ce3	-0.017256206
29	0x3cbec67f	0.02328801
30	0xbc67ecf0	-0.014155611
31	0xbbeee17e	-0.0072900644
32	0xbca925b7	-0.020647867
33	0xbb39c8bf	-0.0028348414
34	0x3ba3c220	0.0049975067
35	0x3d25a1dc	0.040437564
36	0x3c2c5018	0.010517143
37	0x3cdfb6ee	0.027308907
38	0xbd3aad51	-0.045575444
39	0xbcd3057e	-0.025759455
40	0xbd3ef4a2	-0.04662002
41	0xbcf49383	-0.029855495
42	0xbcd239ba	-0.025662292
43	0xbccf5992	-0.025311265
44	0xbc13135d	-0.008976785
45	0x3cc5fc19	0.024168061
46	0xbd1a4bc9	-0.03766993
47	0x3d1d8623	0.038458

weight f4 [48]
0	0x3f557103	0.8337557
1	0x3e39b326	0.18134746
2	0x3f6a6e90	0.91574955
3	0x3f2cacb9	0.67451054
4	0x3ec6b2b4	0.38808215
5	0x3f38d37a	0.7219769
6	0x3f306556	0.68904626
7	0x3f2cec1b	0.6754777
8	0x3f064de0	0.5246258
9	0x3f329e68	0.6977296
10	0x3ee9d765	0.45672145
11	0x3f464c8f	0.7746057
12	0x3eec449e	0.461461
13	0x3f370f08	0.7150731
14	0x3ea01eb4	0.31273425
15	0x3e899f2b	0.26879248
16	0x3f57b38d	0.8425835
17	0x3ef0bc1a	0.4701851
18	0x3f6fe6b2	0.9371139
19	0x3f41c325	0.7568839
20	0x3f62e473	0.88629836
21	0x3dff9dff	0.12481307
22	0x3da28fa4	0.079375535
23	0x3f23bf54	0.6396382
24	0x3e30a865	0.17251737
25	0x3e592e66	0.21209106
26	0x3f396a28	0.72427607
27	0x3f6ed432	0.93292534
28	0x3ebbf934	0.36713564
29	0x3d6c22c3	0.05765034
30	0x3ee2172d	0.44158307
31	0x3f1e2af5	0.617843
32	0x3f5c54f4	0.8606713
33	0x3e6a8fa9	0.22906365
34	0x3dbb97ca	0.09159811
35	0x3e1d537b	0.15363877
36	0x3d81afbb	0.06332346
37	0x3f30c352	0.69048035
38	0x3f4a86b2	0.7911178
39	0x3f04710c	0.51734996
40	0x3de6f696	0.11277501
41	0x3eb60b37	0.3555543
42	0x3e700a93	0.23441534
43	0x3edc3b82	0.4301415
44	0x3f55725c	0.83377624
45	0x3eee5968	0.46552587
46	0x3e68ea51	0.22745635
47	0x3f56ddac	0.83931994

bias f4 [48]
0	0xbc2fd389	-0.010731586
1	0xbb87382f	-0.0041265707
2	0x3923a120	0.00015604915
3	0x3c666d68	0.01406417
4	0xbb173a98	-0.0023075696
5	0xbc44cf8c	-0.012012374
6	0xbcd60a9b	-0.026128104
7	0xbb551987	-0.0032516436
8	0xbca67a5c	-0.020322017
9	0xbb529a3d	-0.003213539
10	0x3be48f4f	0.0069750915
11	0xbbd1642c	-0.0063901152
12	0xbc61a48d	-0.013772142
13	0xbc356f5e	-0.011073915
14	0xba117492	-0.00055486814
15	0x3c6f0861	0.0145894
16	0xbbfe613b	-0.0077630556
17	0x3c75e1bd	0.0150074335
18	0xbac81d38	-0.0015267497
19	0xbb96733b	-0.0045913733
20	0x3c7497da	0.014928782
21	0x3bfc5f11	0.0077017625
22	0xbc7410cc	-0.014896583
23	0xbb9eba77	-0.0048440057
24	0x3c89a4d0	0.016802222
25	0x3c9420fe	0.018082138
26	0x3ca3f8f7	0.020016177
27	0xbaf716aa	-0.0018851359
28	0x3c7f9234	0.015598822
29	0x3cae8d74	0.021307684
30	0xbc08f4c6	-0.00835914
31	0x3c0d1d54	0.008612949
32	0xbc2a2953	-0.010385829
33	0xbc33013e	-0.010925589
34	0x3bd33f3d	0.0064467476
35	0xb990f910	-0.00027651386
36	0x3ccb17d1	0.02479163
37	0x3aa9f65f	0.0012967101
38	0xbbc61eb7	-0.006046142
39	0xbc1859e2	-0.0092987735
40	0xbca8ca2e	-0.02060422
41	0x3bd92d49	0.006627713
42	0xbd07bff6	-0.033142053
43	0xbb72e9f1	-0.003706571
44	0xbb24a386	-0.0025121882
45	0xbbdacfdf	-0.006677612
46	0xbd00f0a2	-0.031479485
47	0x3c1c0e6c	0.009524923

running_mean f4 [48]
0	0x3dcfd2b2	0.10147609
1	0x3c842f44	0.01613582
2	0x3eb6afef	0.35681102
3	0x3de0eb09	0.109823294
4	0x38113e00	3.4628436e-05
5	0xbdbe10c7	-0.09280544
6	0x3dea335b	0.114355765
7	0xbdd5207a	-0.10406585
8	0x3d862c19	0.0655138
9	0x3e829096	0.25500935
10	0xbda47ead	-0.08031974
11	0xbe11d67c	-0.14241976
12	0x3e97f8ed	0.29682103
13	0xbe2d432b	-0.16920154
14	0xbcd306ee	-0.02576014
15	0x3e8629f3	0.2620388
16	0x3d721373	0.05910058
17	0xbe6fe789	-0.23428167
18	0xbe65e99e	-0.22452399
19	0x3dba15ba	0.09086175
20	0xbd5192e2	-0.05116547
21	0x3e4ab69c	0.19796222
22	0x3e8900ee	0.26758522
23	0x3e78a0c2	0.24280074
24	0xbd5e6677	-0.054296937
25	0xbe82620f	-0.25465438
26	0x3d11e55a	0.035619117
27	0xbe6394d8	-0.22224748
28	0xbe430628	-0.19045317
29	0xbd39564e	-0.045248322
30	0x3dc612d1	0.09671558
31	0x3e26a122	0.16272405
32	0x3e739c75	0.23790152
33	0x3d1c2f5a	0.038131095
34	0xbe27a6d2	-0.1637223
35	0x3e4a6331	0.19764401
36	0xbe8d440b	-0.27590975
37	0xbe056aa9	-0.13028969
38	0xbe499165	-0.1968437
39	0xbe469d95	-0.1939605
40	0x3da515d8	0.08060807
41	0x3e2c0281	0.1679783
42	0xbde82ccd	-0.1133667
43	0x3e6eef47	0.23333465
44	0xbdfedc58	-0.12444371
45	0x3d3baecb	0.045820992
46	0xbe04efb8	-0.1298207
47	0xbe870d07	-0.26377127

running_var f4 [48]
0	0x3ede04e6	0.43363112
1	0x3db39e82	0.08770467
2	0x3e2e5c1e	0.17027327
3	0x3e20bc9b	0.15696947
4	0x3df794ff	0.120889656
5	0x3ddf9c40	0.10918474
6	0x3e1826af	0.14858507
7	0x3df1c40e	0.118049726
8	0x3dedfa84	0.11620048
9	0x3e493d58	0.19652307
10	0x3e4643a9	0.19361748
11	0x3e238bc9	0.15971293
12	0x3e20d7e5	0.15707357
13	0x3e1340f3	0.14380245
14	0x3e1acee8	0.15117991
15	0x3e407846	0.1879588
16	0x3ea3c198	0.31983638
17	0x3dd52aa0	0.10408521
18	0x3e6cf012	0.23138455
19	0x3dd0644e	0.101753816
20	0x3e1d0784	0.15334898
21	0x3d718e77	0.058973756
22	0x3d9e007a	0.07714935
23	0x3e096063	0.13415675
24	0x3de7897b	0.11305519
25	0x3dd0d0ce	0.10196076
26	0x3e89a008	0.26879907
27	0x3e8b7530	0.27237844
28	0x3dbaf2e5	0.0912836
29	0x3dcec522	0.10096194
30	0x3da13191	0.07870782
31	0x3e163776	0.14669594
32	0x3ddffd3e	0.10936974
33	0x3db885ff	0.09009933
34	0x3e10fc2d	0.14158697
35	0x3dbc7b03	0.0920315
36	0x3df807d8	0.12110871
37	0x3da05310	0.07828343
38	0x3e40f2fa	0.18842688
39	0x3e9bc366	0.30422515
40	0x3d98485f	0.07435679
41	0x3de3e9e8	0.111285985
42	0x3dcfd177	0.10147374
43	0x3e059d10	0.13048196
44	0x3ea3a392	0.31960732
45	0x3e88c96c	0.26716173
46	0x3e59b0f0	0.21258903
47	0x3da4c6f0	0.08045757
